model/keypoint_classifier/keypoint_classifier_0725_lstm.tflite (tflite, 42400 bytes, 7 tensors)

sequential_3/dense_11/BiasAdd/ReadVariableOp f4 [12]
00000000: 8f24 82be 34f0 71be 3a85 5abd 4075 a3bd
00000010: fea8 35bc 622e a4bd 28b5 1d3e 64a1 343d
00000020: 20b1 d9bd b557 0f3f 6edc 883c 7962 6ebe
-0.25418517 -0.23626786 -0.05334971 -0.07981348 -0.011087654 -0.08016659 0.15401137 0.044099227
-0.10629487 0.55993205 0.016706672 -0.23279752

sequential_3/dense_10/BiasAdd/ReadVariableOp f4 [10]
00000000: 7339 9fba 01a6 a23e f1d3 71bd 6cd4 c53d
00000010: 4b8d 6c3e aefd 2dbe f4ae 963c 0727 633e
00000020: 6cc9 2dbe 21c6 a33d
-0.0012147859 0.31767276 -0.059040014 0.09659657 0.23100774 -0.16991302 0.018393971 0.22182857
-0.16971368 0.079967745

sequential_3/dense_10/MatMul f4 [10, 64]
00000000: 02ee b03d 8e8d 8c3e 2b11 24be 49de 23bd
00000010: e907 353e 4e83 953d f57c 60be fe62 1abe
00000020: 1501 373e 4bf5 413e 570c 93bd 304e 81bc
00000030: 69bf 8ebd ad57 923e 0095 3f3d d830 89be
00000040: e3f4 e9bd 4063 b23e d05d 56be 5abc 6b3e
00000050: 20ea 72be 79d5 5bbe 1dc2 22be 2918 9a3e
00000060: baaf 393d 23d7 bdbd 039d 3a3d 4208 fc3d
00000070: 3208 323e e2b0 053d 0c71 b33e 3210 cfbc
00000080: d2cb 03be d15e b8bd dab6 10bd 4459 08bc
00000090: 741b a8bc e737 8c3e 9fab 84be 42d7 a7bd
000000a0: d01e 0b3e 7796 14be 0078 49be eb97 97be
000000b0: 9d68 8fbd 9f27 803e ed2d 083e 18ae d13d
000000c0: e0c2 94be ea3f 8abd 8e3a 1a3e ee48 09be
000000d0: ccae 483e 3b1c b83d d843 373d 3e36 213e
000000e0: f121 cf3d 811e 9abd d6f6 b63d b5a3 893e
000000f0: 6809 45be 9c99 103e 57ae a83e 10d4 03be
00000100: b434 68bc b43b 77bd b83a 8dbe 202f bc3d
00000110: fb61 a53e aaaf 32bd 0052 673e 7552 663e
00000120: cc32 4abe 005f 8b3e 8bb1 cebd 9a9a eb3d
00000130: 7527 283e c5b6 06bd 0b64 de3d 0a24 743e
00000140: 82fc 44be 6e3d c6bd 09d8 143e 6308 583d
00000150: 800c 893e 611b 8fbe a00d b93e 378c 87bd
00000160: 1315 88bd 1233 8abc f918 d53e feb9 403e
00000170: b870 40bd 143a 543d f4ea 493d 6b3d 6a3d
00000180: 547c c6be d4d6 e83e 4896 95bd 22ee d53e
00000190: 2317 d6bd 2d93 a7be 0c97 a83e 2916 0f3e
000001a0: 64bd 24bc e295 913e a2d4 e8bd a23b 89bd
000001b0: d1c3 c13e b3c2 77bd 23c8 873e 84ec 5ebe
000001c0: 8719 2c3e 8c53 73bd ae12 2fbe 4117 083f
000001d0: 18f5 fd3c 9fbe 4abe 5a99 2c3e df94 93bd
000001e0: 9501 0ebe 7b28 223f 7b3c 44bd 08d6 053e
000001f0: df34 13be e740 63bd c1d1 52be 7ed1 0d3e
00000200: 96b2 bdbd 8ca5 6cbe 1254 3cbe fbe7 323e
00000210: 3bd5 863e bad5 b03d 0f3a 22be 13b8 ba3a
00000220: f432 3abd 4625 2dbd de96 2b3d cd1f 03be
00000230: 3ca3 88be 3a31 c33d 6da8 75be 340d 1bbe
00000240: 07a0 ed3d cf99 04be 635f 59be d4fa a93d
00000250: 30a3 06bd 9795 6fbe 3a0b c7bd 4a24 1cbb
00000260: 778f 8b3a 3c19 023e c774 d23d ef44 0fbe
00000270: 9abe 2e3e c755 afbe 55ca cfbd 02bc 0abe
00000280: 1fb6 0ebe 90dc 8f3c 9d6f 173e bb68 00be
00000290: cb0a 2bbe 1072 acbe c13c 033e a7e6 2bbd
000002a0: f2d6 acbd 9185 c63c 7597 e33d d8ed 16be
000002b0: 97c9 17be ae65 debd f19a 83be 0452 e3ba
000002c0: da27 a1bd 6b20 483d d2a5 b03c 92a1 6dbe
000002d0: 8485 3abe 1f80 bdbd f65a 80be 1752 47be
000002e0: 2272 0abe e04b dfbd 6f8e c63d 0f39 d63d
000002f0: 2d59 bb3d 845d 633c bba3 273d 148e 1abd
00000300: 05b4 90be dd8e 453e 0adc 6aba 20b9 d9bc
00000310: 7832 333e 852d 96be 7962 893d a058 193e
00000320: e615 1f3d 1cb9 0ebe c692 a3be 6b19 253e
00000330: 4738 cabd ea76 903e a2c3 603e 1205 a5bd
00000340: b8de 0a3e f5e4 50be 3916 063e 56d9 9d3e
00000350: 0a92 08bd 6824 ba3c 12b6 48be 59a5 703d
00000360: 8d85 593e 33a7 9e3d 2ada b03c e23f 8ebe
00000370: 4a38 9abe c2bd c63e ae12 af3e 8d7d e73d
00000380: 92c4 d4be dbd4 66be fc79 8bbd 6158 193d
00000390: 79a5 b93e 5d70 8b3e fb6b dd3d 944b 703e
000003a0: 83f1 25be 1b37 603e 8004 a5bc 48e4 56bd
000003b0: b97f bbbe d8d1 96bc db50 603d 5dc1 ea3d
000003c0: 3f8f 8e3e 2af7 183e a1da 16be 1ec3 9bbe
000003d0: 7c9c a4bd 9e6e 653e 34ff e73d 7322 683e
000003e0: 09ee 553e 9c56 bdbe 3017 34be 6a07 5abd
000003f0: 24e3 4d3c 4b20 13be ad2a 333e a278 973e
0.086391464 0.27451748 -0.16022174 -0.04000691 0.17678799 0.07300435 -0.21922667 -0.15076825
0.17871507 0.18941228 -0.07180088 -0.015784353 -0.06970102 0.28582516 0.046772957 -0.26795077
-0.114236616 0.34841347 -0.20934224 0.23021069 -0.23722124 -0.21468152 -0.15894361 0.30096558
0.0453336 -0.0926955 0.045559894 0.123062626 0.17385939 0.03263939 0.35047185 -0.025276277
-0.1287072 -0.0900246 -0.03533063 -0.008322064 -0.020520903 0.273864 -0.25912187 -0.08195354
0.13585973 -0.14510523 -0.19674683 -0.29608092 -0.07002375 0.25030228 0.1329877 0.10238284
-0.29054928 -0.06750472 0.150614 -0.13406727 0.1959793 0.089897595 0.044742435 0.15743348
0.10113896 -0.075253494 0.08933799 0.2688271 -0.1924187 0.14121097 0.3294551 -0.12873864
-0.014172722 -0.06035967 -0.2758386 0.09188676 0.32301316 -0.043624558 0.22589874 0.22492392
-0.1974594 0.27220917 -0.100924574 0.11504097 0.16421302 -0.032889146 0.108589254 0.23841873
-0.19236949 -0.096796855 0.14535536 0.052742373 0.2676735 -0.27950576 0.36143208 -0.06618541
-0.066446446 -0.016870055 0.41620615 0.1882095 -0.046982497 0.0518132 0.049296334 0.05718748
-0.3876673 0.454764 -0.073040545 0.41783243 -0.10453632 -0.32729474 0.3292774 0.13973297
-0.01005492 0.28434664 -0.113686815 -0.06700827 0.3784471 -0.060488414 0.2651988 -0.21769911
0.16806613 -0.05940585 -0.1709697 0.5316048 0.031000659 -0.19799279 0.16855374 -0.07206129
-0.13867791 0.6334302 -0.04790924 0.13069928 -0.14375637 -0.055481818 -0.20587827 0.13849446
-0.09262578 -0.23110026 -0.18391445 0.17471306 0.26334557 0.08634515 -0.1584246 0.0014245532
-0.04545875 -0.042271875 0.041891925 -0.128051 -0.26687038 0.095308736 -0.2399003 -0.15141755
0.116027884 -0.12949298 -0.21227793 0.08299795 -0.03287047 -0.23396908 -0.09718938 -0.002382534
0.0010647614 0.12704939 0.1027618 -0.1399114 0.17064896 -0.3424513 -0.10146014 -0.13548282
-0.13936661 0.017561227 0.14788671 -0.12539952 -0.16703336 -0.33680773 0.12816145 -0.041968014
-0.08439435 0.024233611 0.111128725 -0.14739168 -0.14822994 -0.108592376 -0.25704148 -0.0017343168
-0.07868929 0.04885904 0.021563444 -0.23206165 -0.18214995 -0.09252953 -0.25069398 -0.19464909
-0.135201 -0.10903144 0.09695136 0.10460102 0.09147868 0.013877276 0.04092763 -0.037733153
-0.28262344 0.1929278 -0.000895918 -0.026577532 0.17499721 -0.29331604 0.06708235 0.14975214
0.038839243 -0.13937801 -0.31947917 0.16122977 -0.09874015 0.28215724 0.21949628 -0.08057608
0.13561523 -0.2039984 0.13094415 0.30829877 -0.0333424 0.022722438 -0.19600704 0.058751438
0.21242352 0.077467345 0.021588404 -0.27783114 -0.3012107 0.3881665 0.3419394 0.11303244
-0.4155622 -0.22542135 -0.06810376 0.0374378 0.36259058 0.27234164 0.10811611 0.23466331
-0.1620541 0.21896021 -0.020143747 -0.0524638 -0.36620882 -0.018410608 0.05476461 0.11462662
0.27843663 0.14938036 -0.14731838 -0.304223 -0.080376595 0.22405478 0.11327973 0.22669391
0.20891584 -0.3698014 -0.1758697 -0.053229727 0.012566362 -0.14367788 0.17496748 0.29584223

sequential_3/dense_11/MatMul f4 [12, 10]
00000000: afdc edbe 9bae c1bd 7907 843e 6d77 dc3e
00000010: 2fbe 64be 2896 943e 6b9e 10be 1ae6 e6be
00000020: 6389 923e 55b9 40bf 3e7e da3b 9de6 01bf
00000030: a4bc ec3e f228 c6be c6aa 49be c67f 793e
00000040: 11e8 0cbf 1afb ae3e 0a6d 67be 7ef6 ba3e
00000050: be11 efbd f751 22bf 5398 38be 01ff 53bc
00000060: c248 513e f6b6 1cbf f61c 9d3e 3418 cf3e
00000070: 620a 34be d5e0 823e f0d7 0abe 3dd2 9a3d
00000080: 1ea5 bc3e a3e9 dcbe b44f 653c 4311 b7bc
00000090: 4ee7 1dbe 1e5e a53e fe7f a53e 9fce c23e
000000a0: 5cdd 8f3e f3e7 11be 9bd3 9abe 6518 893e
000000b0: cdea aabe 74d0 3fbd 6cd0 60be 0223 a33e
000000c0: ea22 d6be 7670 71be 47d7 8fbd 357f 533e
000000d0: 9542 0cbe f4e9 b5be 2db3 b9be 1d80 6b3e
000000e0: ae51 2c3d 50b2 05be 1747 983e 07df 17be
000000f0: e2f2 13bf e69b 43be a0c2 7b3e 4653 2c3d
00000100: e448 c23e dc18 06bf c481 bebe 3f79 1d3f
00000110: b4cf 673d 3695 a2be 1ead 27bf b3d1 cf3e
00000120: ff18 1e3e 60ad 2b3e 4f71 80be a0fc 1dbf
00000130: 0d6d 97be 01f4 73bd 4a74 0f3e 7932 a33d
00000140: d235 e43d dba5 39bd 4d97 debc 8f3e 213e
00000150: e5ff 5f3e b71a 18bf 42e3 8f3e 21bc debe
00000160: 2e94 23bb b932 05bf de33 73be 323c ab3e
00000170: aa87 eabe 7a20 db3d 555a b5bc 178d 25bf
00000180: 46a3 37be 9326 90be 7fcc c6be 218e 143e
00000190: b9ce 563e c42c b5be 8de0 9d3e 4f37 f1be
000001a0: 3e5e cc3e 1047 5dbe b6fa b83e 7060 32be
000001b0: b077 35be aa95 4dbd 8749 733e dc86 88be
000001c0: a5e8 09be 4d00 8fbe 3620 5b3e 3346 a63e
000001d0: 7b58 e33c 939e 0cbe 73aa 3d3e a0bd 883e
-0.4645743 -0.094571315 0.2578695 0.43059865 -0.22338174 0.2902081 -0.14122932 -0.4509743
0.28620443 -0.75282794 0.0066678813 -0.5074251 0.4623767 -0.38703114 -0.19694051 0.24365148
-0.55041605 0.3417595 -0.22600189 0.36516184 -0.11673306 -0.6340632 -0.18026857 -0.012939216
0.20437911 -0.61216676 0.30686158 0.40448153 -0.17582086 0.25562158 -0.13558936 0.07559631
0.36844724 -0.43147 0.0139960535 -0.022347098 -0.15420267 0.32298368 0.32324213 0.38048264
0.2809857 -0.14248638 -0.30239567 0.26776424 -0.33382264 -0.046829656 -0.21954507 0.31862646
-0.41823512 -0.23578057 -0.07023483 0.20653994 -0.13697274 -0.35530055 -0.36269513 0.2299809
0.042070083 -0.13056302 0.29741737 -0.14831172 -0.57792485 -0.1910244 0.24585962 0.042071603
0.37946236 -0.5238168 -0.37208378 0.6151313 0.056594566 -0.31754464 -0.6549853 0.40589675
0.15439223 0.16765356 -0.25086448 -0.617136 -0.29575387 -0.059558872 0.14009205 0.07968611
0.11143078 -0.045324188 -0.027171755 0.1574652 0.2187496 -0.59415764 0.2810307 -0.43502906
-0.0024960148 -0.5203052 -0.23750255 0.33444363 -0.45806628 0.10699554 -0.0221378 -0.6466841
-0.17933378 -0.2815443 -0.38827893 0.14507343 0.20977296 -0.35385716 0.3083538 -0.4711251
0.3991565 -0.2160914 0.36128777 -0.174196 -0.17721438 -0.05019156 0.23758517 -0.2666539
-0.13467653 -0.27929917 0.21399006 0.32475433 0.027752152 -0.13732366 0.18522052 0.26707172

sequential_3/lstm_1/while/lstm_cell_2/BiasAdd/ReadVariableOp f4 [256]
00000000: e843 79bb 2612 42bc 8edf 72bc 98e9 033d
00000010: 19d3 de3b f791 9eba 7dcc 523b f3d7 b53a
00000020: 31b5 3c3c 2d79 f4bb bd61 01bc cf85 063b
00000030: 63c4 763c 3f5c 2f3b 89ce c63b 8824 983c
00000040: 3c12 023d 2bd6 263b cac8 b93c b7a1 b63c
00000050: b8ee e43a ba2b 523c 777f 2a3c e4ab 96bb
00000060: 0d47 9f3c fe50 43bc 9416 f43c 2d4b 3c3c
00000070: c80c 1bbc cddf 873c 51d1 e33b a3d2 fa3c
00000080: 113f 103c 2de5 df3c 92ed 013d aa71 043c
00000090: 07f9 a63c 6b9a a13b 184b a1ba 3031 423c
000000a0: 9147 cbbc 2a5a 4eba 920f 04ba a2fe f8bb
000000b0: ee6e f23c 1d21 373c 3057 423d 4711 3b3d
000000c0: 10c1 17bc 342d 0d3d 085b 07bb 1f46 053b
000000d0: ec3b 7b3c 7579 54ba a950 0f3d 185d 033d
000000e0: 97b0 5e3c b058 5e3c a3ab c5bb 60f3 833b
000000f0: a8c9 0f3c 6850 52bc bad6 69bc 6019 873b
00000100: 826e 803f 8b42 7d3f 2d4b 7e3f 071b 863f
00000110: a242 803f 1bf1 7e3f ed31 803f 9410 813f
00000120: f6f5 7e3f 66c3 853f 9e24 7f3f c8c8 803f
00000130: 0175 863f b3de 803f 3570 813f 2eda 823f
00000140: 6003 833f 5acb 813f df64 843f 8799 823f
00000150: f0f1 813f 3596 813f 48c3 813f e1c7 803f
00000160: 7785 873f 0e1f 803f 2894 863f b3f2 7d3f
00000170: aafa 7c3f 00ff 843f f2b8 7f3f 8a99 843f
00000180: f034 833f 155f 8a3f b3ee 853f 36ff 813f
00000190: a455 823f b7b2 793f 725d 803f 1d6e 833f
000001a0: 29a5 793f 20f3 803f cd36 833f 4802 813f
000001b0: 7f6d 853f 2b22 7e3f a9ba 8f3f 90ef 873f
000001c0: be23 803f b7d5 843f be81 843f 7559 833f
000001d0: 7de0 813f 61a5 823f 4981 833f 3f58 833f
000001e0: f1eb 803f 009e 843f 2717 7d3f 25e8 823f
000001f0: afaa 813f 007f 7d3f 0517 7f3f e005 823f
00000200: 8fc8 bbbc dc50 65bc 54c2 a8bc 1dbd 01bd
00000210: f62c 07ba 76b3 b0bc 1d2c ee3b ed37 c3bc
00000220: 205d 2a3c e284 203c ed73 b0bc c24b 44bb
00000230: 7243 fb3a ff76 943b 2d3a bcbc e028 b13b
00000240: 7b5b 213c a497 15bc 290c f63b 8886 63bb
00000250: e061 cd3b 083a 23bc 5e6b c3bb d839 c6bc
00000260: 8263 ae3c 32ba dd3b ba12 183d e451 b0bc
00000270: 2081 e6bc 9e10 0a3c 072b 91bb ab67 b53c
00000280: 379b e3bc 47c7 163c 8b23 8b3b 4597 543c
00000290: 95e0 703c d669 c6bc b838 a5bc afea 7a3b
000002a0: f424 86bc 421b c73b 1850 da3c 8466 a0bc
000002b0: 17b1 6e3c 545f 0dbc bcde 953b 755f 81ba
000002c0: 2e6f 91bc ba2f 403b a0b3 08bd 1515 d83a
000002d0: 0728 07bc 929f eebb eb97 343c 52c5 1e3c
000002e0: 9f33 debb f42c 883c c31f 12bb 2689 98bc
000002f0: 5d5e 07bb 6ab7 57bc ff97 ecbc 5a85 80b9
00000300: 9b3f 843c 5322 40bc 8c3a 5dbc d7f0 2d3d
00000310: 11b1 d33b 7599 813b d02f 933b 4e18 043c
00000320: 5af8 cd3c e5dc 043d bb6a c0bb 4a96 fa3b
00000330: 86c1 9b3b 74fd d13b f031 0e3c 74b3 313c
00000340: 6ab1 9f3c aaad 8b3c d4ad ff3c 7cf3 093d
00000350: 88a4 b63a 40b2 4d3c 300a 94bb 9730 f8bb
00000360: c1cc 8a3c 289d b9ba eb6c 8a3d d6e0 173c
00000370: bd32 5dbc e6a6 a23c 7ba3 553b 9dd8 083d
00000380: 5d93 0a3c ae1c d53c 70e2 063d 3065 143c
00000390: 7e5c ca3c 11ba 123c e181 743c 2a62 9c3c
000003a0: ad66 c8bc 95f2 cf3b b4d2 193c 06bb 38bc
000003b0: bfab b63c 274b 803b 50ae 5e3d d7ed 2d3d
000003c0: df67 f1ba 785b 163d ee73 e6bb 5a24 bc3a
000003d0: 7b6f 943c 9a0c 913b 1327 0d3d 3acf 3c3d
000003e0: 71d4 b23c 3cbf 1f3c 8311 9dbc bfb6 573c
000003f0: 8aa6 293c 32b0 2dbc 2343 11bd bdb7 06bb
-0.003803486 -0.011845147 -0.014823807 0.032205194 0.006800067 -0.0012097944 0.0032165342 0.0013873562
0.011517809 -0.0074607343 -0.007896838 0.0020526533 0.015061471 0.0026757864 0.0060671014 0.018572107
0.03175567 0.0025457244 0.022678751 0.022293909 0.0017466163 0.012827808 0.010406367 -0.0045981277
0.01944306 -0.0119211655 0.029795922 0.011492533 -0.0094634965 0.016586209 0.0069524427 0.030618018
0.008804099 0.02733096 0.031720705 0.00808374 0.020382417 0.004931738 -0.0012305705 0.0118525475
-0.024814399 -0.0007871712 -0.00050377205 -0.007598714 0.029593911 0.011177328 0.04744643 0.045670774
-0.009262338 0.034466937 -0.0020653624 0.0020335985 0.015334111 -0.0008105257 0.034989033 0.032071203
0.013591907 0.013570949 -0.0060324236 0.0040268153 0.008776106 -0.012836553 -0.014272386 0.004122898
1.0033724 0.9892966 0.9933346 1.0476998 1.0020335 0.9958665 1.0015236 1.0083184
0.99594057 1.0450256 0.9966525 1.0061274 1.0504457 1.0067962 1.0112368 1.0222833
1.0235405 1.0140183 1.0343283 1.0203103 1.0151958 1.0123965 1.013772 1.0060998
1.0587605 1.0009477 1.0513964 0.99198455 0.98819983 1.039032 0.9989158 1.0359356
1.025053 1.0810267 1.046347 1.0156009 1.0182385 0.9753832 1.0028517 1.0267979
0.9751764 1.0074196 1.0251099 1.0078821 1.042404 0.99270886 1.1228839 1.0619984
1.0010908 1.037772 1.0352094 1.0261675 1.0146633 1.020672 1.027383 1.0261306
1.0072004 1.0360718 0.9886345 1.0227095 1.0130213 0.9902191 0.996445 1.0158043
-0.022922782 -0.013996329 -0.020600475 -0.031674493 -0.0005156541 -0.021569949 0.0072684423 -0.023830378
0.010398179 0.009797307 -0.021539653 -0.0029952382 0.001916988 0.004530787 -0.02297696 0.005406484
0.009848471 -0.009130392 0.007508774 -0.0034717638 0.006267771 -0.009962566 -0.005963727 -0.024197504
0.021287683 0.006766581 0.037127234 -0.021523423 -0.028137743 0.008426813 -0.004430178 0.02214416
-0.027783973 0.009202785 0.0042461804 0.012975519 0.014701982 -0.024220388 -0.020168647 0.0038286855
-0.016375042 0.0060762474 0.02664952 -0.019580133 0.014568589 -0.008628685 0.004573671 -0.0009870367
-0.01775321 0.0029325322 -0.03337443 0.0016485775 -0.008249289 -0.007282206 0.011022548 0.0096905995
-0.006781056 0.016622998 -0.0022296763 -0.018620085 -0.002065561 -0.013166288 -0.028881071 -0.00024513417
0.01614361 -0.0117269335 -0.013502728 0.04246601 0.006460317 0.003955061 0.0044917837 0.008062435
0.025142837 0.032437224 -0.0058720983 0.0076473104 0.0047532944 0.006408388 0.008678898 0.010846008
0.019493777 0.017050583 0.031210817 0.03367947 0.0013934532 0.012554705 -0.004517816 -0.0075741517
0.016943337 -0.0014161216 0.06759056 0.009269914 -0.0135008665 0.019854974 0.0032598663 0.033409704
0.008457986 0.026014652 0.03293079 0.009057328 0.024702307 0.0089554945 0.014923544 0.019089777
-0.024463022 0.0063460567 0.009388614 -0.011275059 0.022298692 0.003915209 0.054365456 0.04246315
-0.0018417797 0.036708325 -0.007032863 0.0014354095 0.018119564 0.004426551 0.034461092 0.046096064
0.021829816 0.009750184 -0.01917339 0.013166129 0.010354647 -0.01060109 -0.035464417 -0.0020556294

sequential_3/lstm_1/while/lstm_cell_2/MatMul_11 i1 [256, 64] scale=0.0024782852 zero_point=0
00000000: 2700 33ed 0409 1611 cb05 c419 0301 1a0e
00000010: 0a2d ebdc fa1e 39fa 07e4 fb13 26dd 1c11
00000020: e80a 2218 b9ec 0308 f0cd deee f1bd 07f5
00000030: 1f1a f811 f40d 0f1c e756 e5fe 0d2d 01e6
00000040: 0612 0ff7 1406 0a39 04f4 0bdd f3e8 ef03
00000050: 15f3 f1fe 1306 f4e8 0610 fb1e dbe0 eaf2
00000060: 05fb e7e6 cd02 0ef2 00d1 25ed 46fb 06e8
00000070: e1f9 0835 f5f5 f4eb e814 0de0 23e7 f003
00000080: e1fc d912 f712 0410 14fb ca08 21d2 e2ef
00000090: 19f0 1eed eb11 fa0b 06e9 ce35 3bb2 f223
000000a0: e222 1a23 10fd 0703 1d02 bfec 2717 0007
000000b0: ef07 2ae7 cf00 f929 2e32 3d38 df03 fe18
000000c0: 1c0d 06ea e50c ddef ffee ee06 0708 fb21
000000d0: fbfb f2dc 0d17 04e9 1909 f8e8 1934 0cfc
000000e0: f812 fbf5 0439 e2fc 19fb f109 fe15 13da
000000f0: faf9 e510 de28 fe08 0e2a 3d04 33f6 fe2e
0.096653126 0.0 0.12639254 -0.04708742 0.009913141 0.022304567 0.054522276 0.04213085
-0.13134912 0.012391426 -0.14869711 0.061957132 0.0074348557 0.0024782852 0.064435415 0.034695994
0.024782851 0.11152284 -0.05204399 -0.08921827 -0.014869711 0.074348554 0.14126226 -0.014869711
0.017347997 -0.06939199 -0.012391426 0.04708742 0.09417484 -0.08673998 0.06939199 0.04213085
-0.059478845 0.024782851 0.0842617 0.059478845 -0.17595825 -0.049565703 0.0074348557 0.019826282
-0.039652564 -0.12639254 -0.0842617 -0.044609133 -0.037174277 -0.16604511 0.017347997 -0.027261138
0.07682684 0.064435415 -0.019826282 0.04213085 -0.029739423 0.032217707 0.037174277 0.06939199
-0.061957132 0.21313253 -0.0669137 -0.0049565705 0.032217707 0.11152284 0.0024782852 -0.064435415
0.014869711 0.044609133 0.037174277 -0.022304567 0.049565703 0.014869711 0.024782851 0.14126226
0.009913141 -0.029739423 0.027261138 -0.08673998 -0.032217707 -0.059478845 -0.04213085 0.0074348557
0.05204399 -0.032217707 -0.037174277 -0.0049565705 0.04708742 0.014869711 -0.029739423 -0.059478845
0.014869711 0.039652564 -0.012391426 0.074348554 -0.09169655 -0.07930513 -0.054522276 -0.034695994
0.012391426 -0.012391426 -0.061957132 -0.064435415 -0.12639254 0.0049565705 0.034695994 -0.034695994
0.0 -0.116479404 0.09169655 -0.04708742 0.17347996 -0.012391426 0.014869711 -0.059478845
-0.07682684 -0.017347997 0.019826282 0.13134912 -0.027261138 -0.027261138 -0.029739423 -0.05204399
-0.059478845 0.049565703 0.032217707 -0.07930513 0.08673998 -0.061957132 -0.039652564 0.0074348557
-0.07682684 -0.009913141 -0.096653126 0.044609133 -0.022304567 0.044609133 0.009913141 0.039652564
0.049565703 -0.012391426 -0.1338274 0.019826282 0.081783414 -0.11400112 -0.074348554 -0.04213085
0.061957132 -0.039652564 0.074348554 -0.04708742 -0.05204399 0.04213085 -0.014869711 0.027261138
0.014869711 -0.05700056 -0.123914264 0.13134912 0.14621882 -0.19330625 -0.034695994 0.08673998
-0.074348554 0.0842617 0.064435415 0.08673998 0.039652564 -0.0074348557 0.017347997 0.0074348557
0.071870275 0.0049565705 -0.16108854 -0.049565703 0.096653126 0.05700056 0.0 0.017347997
-0.04213085 0.017347997 0.10408798 -0.061957132 -0.12143598 0.0 -0.017347997 0.10160969
0.11400112 0.123914264 0.1511754 0.13878398 -0.081783414 0.0074348557 -0.0049565705 0.059478845
0.06939199 0.032217707 0.014869711 -0.054522276 -0.0669137 0.029739423 -0.08673998 -0.04213085
-0.0024782852 -0.044609133 -0.044609133 0.014869711 0.017347997 0.019826282 -0.012391426 0.081783414
-0.012391426 -0.012391426 -0.034695994 -0.08921827 0.032217707 0.05700056 0.009913141 -0.05700056
0.061957132 0.022304567 -0.019826282 -0.059478845 0.061957132 0.12887083 0.029739423 -0.009913141
-0.019826282 0.044609133 -0.012391426 -0.027261138 0.009913141 0.14126226 -0.074348554 -0.009913141
0.061957132 -0.012391426 -0.037174277 0.022304567 -0.0049565705 0.05204399 0.04708742 -0.09417484
-0.014869711 -0.017347997 -0.0669137 0.039652564 -0.0842617 0.099131405 -0.0049565705 0.019826282
0.034695994 0.10408798 0.1511754 0.009913141 0.12639254 -0.024782851 -0.0049565705 0.11400112

sequential_3/lstm_1/while/lstm_cell_2/MatMul i1 [256, 42] scale=0.0021280325 zero_point=0
00000000: 13e6 d4d1 dbf9 fd31 ead1 d9cd cb10 27c9
00000010: 1ebf 2fe5 fa19 cf3e 3a0f d8cd 22d5 32c0
00000020: 1531 e4b9 a0f0 0fd1 1d15 1427 32e9 0c10
00000030: 0c47 0905 1cca 2f38 b900 1edd 382a c3c7
00000040: 14e4 291d 112d d511 f3fc bfc8 16d5 0331
00000050: d537 0b0c 0cd2 362b 22cf 42e0 ca08 2720
00000060: 281b e5c8 1f06 0704 20d3 dcd1 1c06 c816
00000070: 0d14 d3d8 e8dd af1c 02cc bdeb cde0 28ea
00000080: e9b4 1d06 08b5 ecc8 2d20 55e5 34e1 44ef
00000090: fb0a 2021 4634 c2ce b8db 181c 0d10 fcdc
000000a0: aca0 d701 ba2c 361c 4038 f7d9 d4be efe5
000000b0: c1f3 0831 41f7 c526 39c3 ff3d 2d39 2a00
000000c0: 142e 0335 0ff0 6a2b 09f3 f537 3be3 3cf6
000000d0: 7cd7 28e7 d821 3dbd d71f 05b0 ea12 e6f0
000000e0: 2900 ea09 1fc0 2c20 33df cd29 0901 1afa
000000f0: f2d0 353f 3222 fcc3 3d23 fdd1 c1e3 e0be
0.040432617 -0.055328846 -0.09363343 -0.100017525 -0.0787372 -0.014896227 -0.0063840975 0.104273595
-0.046816714 -0.100017525 -0.08299327 -0.10852966 -0.11278572 0.03404852 0.08299327 -0.11704179
0.06384098 -0.13832211 0.100017525 -0.057456877 -0.012768195 0.05320081 -0.104273595 0.13193801
0.123425886 0.03192049 -0.085121304 -0.10852966 0.0723531 -0.0915054 0.10640162 -0.13619408
0.044688683 0.104273595 -0.05958491 -0.15109031 -0.20429112 -0.03404852 0.03192049 -0.100017525
0.061712943 0.044688683 0.042560652 0.08299327 0.10640162 -0.04894475 0.02553639 0.03404852
0.02553639 0.15109031 0.019152293 0.010640163 0.05958491 -0.114913754 0.100017525 0.11916982
-0.15109031 0.0 0.06384098 -0.07448114 0.11916982 0.089377366 -0.12980998 -0.12129785
0.042560652 -0.05958491 0.08724933 0.061712943 0.03617655 0.09576146 -0.0915054 0.03617655
-0.027664423 -0.00851213 -0.13832211 -0.11916982 0.046816714 -0.0915054 0.0063840975 0.104273595
-0.0915054 0.11704179 0.023408357 0.02553639 0.02553639 -0.0978895 0.114913754 0.0915054
0.0723531 -0.104273595 0.14045015 -0.06809704 -0.114913754 0.01702426 0.08299327 0.06809704
0.085121304 0.057456877 -0.057456877 -0.11916982 0.065969005 0.012768195 0.014896227 0.00851213
0.06809704 -0.09576146 -0.07660917 -0.100017525 0.05958491 0.012768195 -0.11916982 0.046816714
0.027664423 0.042560652 -0.09576146 -0.085121304 -0.05107278 -0.07448114 -0.17237063 0.05958491
0.004256065 -0.11065769 -0.14257818 -0.044688683 -0.10852966 -0.06809704 0.085121304 -0.046816714
-0.04894475 -0.16173047 0.061712943 0.012768195 0.01702426 -0.15960243 -0.042560652 -0.11916982
0.09576146 0.06809704 0.18088277 -0.057456877 0.11065769 -0.065969005 0.1447062 -0.03617655
-0.010640163 0.021280326 0.06809704 0.070225075 0.14896227 0.11065769 -0.13193801 -0.10640162
-0.15321834 -0.0787372 0.05107278 0.05958491 0.027664423 0.03404852 -0.00851213 -0.07660917
-0.17875473 -0.20429112 -0.08724933 0.0021280325 -0.14896227 0.09363343 0.114913754 0.05958491
0.13619408 0.11916982 -0.019152293 -0.08299327 -0.09363343 -0.14045015 -0.03617655 -0.057456877
-0.13406605 -0.027664423 0.01702426 0.104273595 0.13832211 -0.019152293 -0.12555392 0.080865234
0.12129785 -0.12980998 -0.0021280325 0.12980998 0.09576146 0.12129785 0.089377366 0.0
0.042560652 0.0978895 0.0063840975 0.11278572 0.03192049 -0.03404852 0.22557144 0.0915054
0.019152293 -0.027664423 -0.023408357 0.11704179 0.12555392 -0.061712943 0.12768196 -0.021280326
0.26387602 -0.08724933 0.085121304 -0.05320081 -0.085121304 0.070225075 0.12980998 -0.14257818
-0.08724933 0.065969005 0.010640163 -0.17024261 -0.046816714 0.038304586 -0.055328846 -0.03404852
0.08724933 0.0 -0.046816714 0.019152293 0.065969005 -0.13619408 0.09363343 0.06809704
0.10852966 -0.070225075 -0.10852966 0.08724933 0.019152293 0.0021280325 0.055328846 -0.012768195
-0.029792454 -0.10214556 0.11278572 0.13406605 0.10640162 0.0723531 -0.00851213 -0.12980998
0.12980998 0.07448114 -0.0063840975 -0.100017525 -0.13406605 -0.061712943 -0.06809704 -0.14045015
